off_line/rnn_model/BERT_RNN.pth (torch_old, 467256 bytes, 4 tensors)

i2h.weight f4 [128, 896]
000000 fb 8f d9 3c 01 d6 50 bc f7 39 b8 3c 34 7b 7a 3c
       0.026557913 -0.012746335 0.022488577 0.015288163
000010 33 1f 90 3c 85 45 ba 3c cb ed 1f bd 23 fe 35 3c
       0.017593002 0.022738228 -0.039045136 0.011107954
000020 fc db 57 3c e9 be da 3b 3c 8f 1a 3d 1e 43 16 3d
       0.013175007 0.0066755903 0.037734255 0.0366851
000030 0a 90 aa bc d8 8e b3 3c ff d0 26 bd a7 a0 28 bc
       -0.020820636 0.0219187 -0.040726658 -0.010292209
000040 c7 6a 07 3d 17 89 38 3b cd 9b c6 bb e2 2f 60 bc
       0.033060815 0.0028157884 -0.0060610534 -0.013683291
000050 4e 9e cc bc 2f 42 e7 b8 47 c0 36 bc b8 49 9d bc
       -0.02497783 -0.00011027266 -0.011154241 -0.01920019
000060 86 9e cd 3c 4f ca ff bc 30 b1 0c bc 8b 3c cf 3b
       0.025100004 -0.031224398 -0.008587167 0.006324356
000070 63 28 ea 3b af 13 06 3d 1b 22 06 3c 58 ca 11 bd
       0.0071459278 0.032733615 0.008186842 -0.03559336
000080 f6 bf 2e b9 2d dd 89 bc aa 4d b1 bc 5d 9b a2 bc
       -0.00016665444 -0.016829098 -0.021643478 -0.019849474
000090 ce 85 af 3c 4b d0 bc bb 4d 1e 44 3c 1a 4f ba 3c
       0.021426108 -0.005762135 0.011970115 0.022742797
0000a0 9d 95 14 3c 68 4c 02 3d 54 e5 a5 3c f4 50 71 bb
       0.009068874 0.031811148 0.020250954 -0.0036821933
0000b0 fc c9 40 3d 2f ba 42 3c 03 69 2d bc 1d 69 67 3c
       0.047067627 0.01188521 -0.010584119 0.014124182
0000c0 57 aa e9 3b d3 5c 0c bd f1 15 7b 3c 94 cf 0b 3d
       0.007130902 -0.03426821 0.015325055 0.03413351
0000d0 76 ad 34 3c a5 93 f1 bc 88 d8 dd 3b 81 ff 6b bc
       0.011027684 -0.029489348 0.0067701973 -0.014404179
0000e0 97 fb 2d 3c ea ae 18 3d 6c c0 99 3c 38 62 c3 bc
       0.010619066 0.037276186 0.018768512 -0.023850545
0000f0 35 c8 4d bb 14 a1 01 b9 03 a5 e8 bc 46 86 f7 3a
       -0.003139985 -0.00012362405 -0.028398996 0.0018884621
000100 6d 57 44 bd 32 a7 61 3b 36 8c 02 3d 49 40 8a bc
       -0.04793494 0.0034431932 0.031871997 -0.016876357
000110 0f 78 5a 3c 26 fa 44 bb 5a 0b a4 3c d1 25 81 3c
       0.013334288 -0.0030056327 0.020024944 0.015765103
000120 c1 4c b9 bb 09 06 99 3c 95 96 ad 3c d2 f9 95 bc
       -0.0056549017 0.018679636 0.021189967 -0.0183076
000130 ec f8 31 bc 1e 95 ba bc 3d c3 29 3c 90 57 ba 3c
       -0.01086257 -0.022776183 0.01036149 0.022746831
000140 a3 89 f8 3b 06 59 29 bb 6b 41 c7 bb 45 3a e2 3c
       0.007584767 -0.0025840416 -0.0060807965 0.027615676
000150 91 35 88 bc 58 ea 73 3c c7 c4 69 3c 2e 40 82 3c
       -0.016627105 0.014887415 0.014268107 0.015899744
000160 6f 33 78 3b 18 af a2 3c c0 fc d2 3b 06 a3 d9 3b
       0.0037872454 0.019858882 0.0064388216 0.0066417484
000170 2f 1c 99 bc 4c 1a aa bc 8c e5 2a bd 1f e6 a3 3c
       -0.018690197 -0.020764492 -0.04172282 0.020007191
000180 fd 26 20 bc 39 09 fd bb 80 da 61 3c bb 4b 6b 3c
       -0.0097749205 -0.0077220467 0.013785005 0.014361317
000190 ff 55 3b 3a 95 05 cc bb 1a 31 b6 3c 26 ff 93 bc
       0.00071462983 -0.0062262514 0.02224021 -0.018066
0001a0 c8 c1 be 3b 17 3c b5 bc 3d d5 63 3c 66 aa 98 bc
       0.0058214404 -0.02212338 0.01390582 -0.01863594
0001b0 63 31 8c bc a0 df f2 bc 71 45 b3 3c af 36 4e 3c
       -0.017113393 -0.029647648 0.021883698 0.01258628
0001c0 d9 e3 ce bc db 94 15 3d f0 55 40 3c 46 75 16 3d
       -0.02525513 0.036518913 0.011739239 0.036732934
0001d0 81 20 f5 3b c8 8e fd 3c eb 4f a4 bc d0 6f 7c 3c
       0.0074806814 0.030951872 -0.02005764 0.015407518
0001e0 0d 1b a9 3c 89 2f f5 bc 1f 4a f2 bc d4 a8 88 bc
       0.020642782 -0.029929893 -0.02957636 -0.016682066
0001f0 2b a3 53 ba 8a 3b 30 bc 68 a6 44 bc 35 28 ad 3c
       -0.0008073325 -0.010756383 -0.012002565 0.021137336
000200 c0 13 fb 3a 89 8e f1 bb 9a a1 e1 bc 1e c7 ad bc
       0.0019155666 -0.007371728 -0.027542878 -0.02121311
000210 3f bd ca 3b 44 c3 0e 3c c9 0e ee bc ad ce 20 bc
       0.0061871107 0.008713547 -0.029059784 -0.0098149
000220 b1 f8 10 bc a9 c9 d5 bb 53 f1 e2 bb f3 91 0d bd
       -0.008848355 -0.006524284 -0.0069257407 -0.034563016
000230 42 b7 ab 3c d2 78 02 bc e4 32 af bc c7 b2 e7 bc
       0.020961408 -0.007963376 -0.021386571 -0.02828349
000240 4c 16 1b 3c 4f 43 b3 bc 73 56 d0 bc b1 a1 9b bc
       0.009465765 -0.021882681 -0.025431847 -0.018997999
000250 39 db 71 bc b2 1e eb bb ec aa 38 3c 12 4e 60 bc
       -0.014761739 -0.00717529 0.01127122 -0.013690488
000260 66 21 57 3c fc e9 86 bc 21 0b 41 bc 25 c6 67 bc
       0.013130521 -0.016468994 -0.0117824385 -0.014146362
000270 89 da 76 bc 19 95 96 bb 7b c3 50 bc 61 8f d3 3b
       -0.015066751 -0.0045954105 -0.012741919 0.006456301
000280 6a 54 16 bc 6d 2f 53 bc 70 ee fc bc c1 4a 09 bd
       -0.009175399 -0.012889725 -0.030875415 -0.033518557
000290 a5 13 91 3c 67 7b aa bc a9 7b c3 bc 5c db 9a bc
       0.017709563 -0.020810796 -0.023862677 -0.018903427
0002a0 e6 e0 77 bc d9 ab 9e bc d9 b2 ea bc ff 33 c3 3c
       -0.015129304 -0.019369053 -0.028649734 0.023828505
0002b0 ac e3 27 3b 1a 52 f9 3c b1 61 d2 bb 70 d5 f9 3c
       0.002561788 0.030434657 -0.006420337 0.030497283
0002c0 5c 1d 06 bd 5d 8f e8 bc f9 fb 7c 3c d8 50 54 3c
       -0.032742843 -0.028388673 0.015440934 0.012958728
0002d0 bd e9 d0 bc 28 50 11 bc 77 5c 4b bb 6b cc 8c 3a
       -0.02550208 -0.008869208 -0.0031030455 0.0010742074
0002e0 ce ee 0b 3b f4 de b0 bc 77 e0 81 bc b9 d9 5a bc
       0.0021352055 -0.021590687 -0.015854103 -0.013357573
0002f0 22 3c cb 3c 5b db ee 3c e2 e0 a7 bb 4f 52 16 3c
       0.024808947 0.029157331 -0.0051232437 0.009174897
000300 6c 2f 86 bc 60 1e 0e 3d 16 3e 47 bd 35 f7 18 3d
       -0.016380034 0.034696937 -0.048643194 0.03734513
000310 aa 5f 48 3c 3c 7e ea 3c ee 13 a7 3b b3 14 53 bc
       0.012229839 0.028624646 0.0050988114 -0.012883353
000320 e7 27 56 bc 93 b9 41 bc b9 cd b3 3c a3 41 8b bc
       -0.013071037 -0.0118240295 0.021948682 -0.016999071
000330 65 70 b1 b9 dd e0 1c 3c f5 72 28 bb 19 ed b1 3b
       -0.0003384381 0.009575096 -0.0025703285 0.0054298756
000340 9b 02 9e bb 55 74 ad bc 7c 96 17 bc 01 13 9c 3c
       -0.004822088 -0.021173635 -0.009252187 0.01905203
000350 e4 e8 80 bc 03 05 ad 3c 75 ac 28 3d 4e 8c 23 3c
       -0.01573605 0.021120554 0.041180093 0.009982182
000360 65 5d 34 3c ae 57 e6 3a f1 36 32 bc 06 12 2c 3c
       0.011008595 0.0017573738 -0.010877357 0.010502344
000370 be 94 86 3c 35 bf 57 bb 0b 34 29 bc 21 9f 19 bc
       0.016428348 -0.0032920365 -0.010327349 -0.009376318
000380 b1 6a f7 3c 4b 74 2a bc 0e 89 fc 3b c8 a6 88 bb
       0.030202242 -0.010403703 0.007706768 -0.0041702725
000390 c2 e4 bb 3a 33 a2 83 3c 4e 50 0f bc 7a 17 be bc
       0.0014335143 0.016068554 -0.0087471735 -0.023204554
0003a0 3a b0 a8 3c a7 10 af 3c 29 89 20 3c 82 ce d3 3c
       0.020591844 0.021370245 0.0097983265 0.025855307
0003b0 f8 43 a5 3b cc 8e 3c 3c f8 da 7c bb d8 ed 6f bc
       0.005043503 0.011508655 -0.0038582664 -0.014644109
0003c0 85 01 e1 bb e6 40 2c 3c 87 7b 16 3c be 11 70 3b
       -0.006866636 0.01051352 0.009184725 0.003663167
0003d0 e3 e4 cd bc 95 5f 45 38 13 40 1c bc 72 99 d5 3c
       -0.025133556 4.7057478e-05 -0.009536761 0.026074145
0003e0 17 8e 48 3c 42 9e 0f bb ee b1 bb bb 86 7e 3e bc
       0.012240908 -0.0021914397 -0.005727998 -0.011626845
0003f0 d7 b6 83 bc f0 2c e2 bc c4 52 04 bd d3 b2 da bb
       -0.016078396 -0.027609318 -0.032305494 -0.0066741495

i2h.bias f4 [128]
000000 22 7b 22 bb c5 fa 02 bc 6f c1 86 bb f9 98 90 3c
       -0.002479263 -0.007994358 -0.0041124146 0.017651068
000010 d0 ea bf bc d8 39 e4 3c 1d 8d ed bc 54 2c b9 3c
       -0.023427397 0.027859613 -0.028997952 0.022604145
000020 14 cf c2 3c ab 8b af 3c 2a 4e 8f bc 40 c3 f4 3c
       0.023780383 0.021428904 -0.017493326 0.029878259
000030 31 26 68 3c 4e 50 f4 3c db 29 86 bc 24 be 8f bc
       0.014169262 0.029823449 -0.01637738 -0.01754672
000040 bc 50 25 3c 0b 82 8c 39 b5 2b ce bb 19 08 a0 3c
       0.010090049 0.0002679977 -0.0062918314 0.019535111
000050 31 69 81 3c 7f 53 c6 bb 54 42 a6 bc c9 db 93 3a
       0.01579723 -0.006052434 -0.0202953 0.0011280711
000060 55 9c c7 3c 01 e9 8c 3c 0c d1 9f 3c 13 75 77 3c
       0.024366537 0.017200949 0.019508861 0.015103596
000070 51 30 3f bc 77 7c bd 3c a0 8e 24 3a 74 eb 85 bc
       -0.011669234 0.023130639 0.00062773563 -0.016347624
000080 e6 15 c6 bc b3 88 b2 bc d7 fa ed bc f1 bb af bc
       -0.024180364 -0.021793699 -0.029050274 -0.021451922
000090 5a f2 02 3d 8e 1d de bc bf 41 a4 bc 27 1e 41 bc
       0.031969406 -0.027113702 -0.020050881 -0.011786974
0000a0 86 6a f7 bb 38 04 28 bb 13 7f 57 3c 08 21 8c 3c
       -0.0075505404 -0.002563728 0.013152855 0.017105594
0000b0 1d 3b fb bc 02 0d 45 bb 1b d3 15 3c 94 64 fe 3b
       -0.030667836 -0.0030067568 0.00914457 0.0077634547
0000c0 04 39 d3 ba 61 c4 ac bc 5a 75 4e bc 25 b8 16 3c
       -0.0016115014 -0.021089735 -0.012601221 0.009199177
0000d0 86 d3 c5 3c 95 7d e0 3b 05 a1 65 3c 6d e4 a3 39
       0.024148714 0.006850908 0.014015441 0.00031259973
0000e0 07 62 e5 3c d9 91 8a 3c c7 65 bf bb b8 f4 3a 3c
       0.028000845 0.016915249 -0.00584099 0.011410885
0000f0 7e 5b f4 bb e3 36 ad bb 91 6a 23 3c de 24 94 3c
       -0.007457196 -0.005286084 0.009974138 0.018083986
000100 c2 4a 29 bc 6c d7 69 bc 8c 4b 73 3c e1 43 c5 bc
       -0.010332765 -0.014272552 0.014849555 -0.024080219
000110 bf 22 9b 3c 79 2a 74 b9 c9 c3 a5 ba a0 9c cf bc
       0.018937467 -0.00023285476 -0.001264685 -0.02534324
000120 83 51 13 bc 59 8e f1 3b 7c c2 bb 3c 14 05 cc 3c
       -0.008991602 0.0073717055 0.022919886 0.024904765
000130 1f 56 b7 bc 21 fb 99 bb 11 ec 8b bc c0 29 aa bc
       -0.022379933 -0.0046991264 -0.017080339 -0.020771861
000140 8c d9 57 bc d0 05 c0 bc e9 a4 80 bc 43 a7 de 3c
       -0.013174426 -0.023440272 -0.015703635 0.027179366
000150 ba 22 28 3b 5d 13 00 3d 62 74 49 3c b2 b0 fe bc
       0.0025655464 0.031268466 0.012295814 -0.031090114
000160 7d 9f f2 3b 43 98 b8 bc c1 08 29 3c a9 0c a2 3c
       0.0074042664 -0.022533542 0.0103170285 0.019781427
000170 19 c2 8b 3c 33 d8 b3 b8 90 88 86 bc fd df 09 3d
       0.017060326 -8.5756554e-05 -0.01642254 0.033660877
000180 84 9a ec bc 4a e0 d6 3c 81 ed 8d bc 07 1e 86 bc
       -0.028882273 0.026229996 -0.017325165 -0.01637174
000190 75 e7 e8 bc 5f 87 81 ba 6e da d9 bc 28 49 d7 3c
       -0.02843068 -0.0009882263 -0.026593413 0.02628
0001a0 f0 f6 11 3c 9e 59 0e bd 70 b1 ef bc ad 01 55 3c
       0.008908972 -0.034753434 -0.029259413 0.013000888
0001b0 80 74 8d bc ee 19 26 3b 7a 03 e1 3b 12 91 c4 ba
       -0.017267466 0.0025345045 0.0068668695 -0.0014996848
0001c0 20 d9 00 bc a0 b3 b7 3a 26 5d 3d bc 37 b4 d0 bb
       -0.007864267 0.0014015324 -0.011557853 -0.0063691395
0001d0 90 cb fb 3b 1e 54 08 bd 5a 03 f2 3c 58 f3 3b bc
       0.0076841787 -0.033283345 0.029542614 -0.011471592
0001e0 5c a2 d0 3c 72 be d4 bc 06 ff 86 3c 85 13 a5 3c
       0.025468044 -0.025969718 0.016479027 0.02015091
0001f0 2f d3 f7 ba 6b 6e bd b9 0f 40 15 bb 7e b4 89 3c
       -0.0018907542 -0.00036131157 -0.0022773778 0.016809698

i2o.weight f4 [2, 896]
000000 a3 82 c0 bc d4 05 81 3c a5 3b 14 ba 73 7c 74 3e
       -0.023499792 0.01574985 -0.00056546397 0.23875599
000010 b4 61 27 3e 6d 9c 02 3d 79 24 8f 3d f9 cc ff bd
       0.16345865 0.03188746 0.069893785 -0.12490267
000020 0b ae e1 bd 08 27 1f 3e b2 8b 87 3d 2a 3c 80 3e
       -0.11019524 0.15542233 0.06618442 0.25045902
000030 e6 ed 9b 3d a5 d8 75 3e 44 f2 6d 3d d3 9b f4 bc
       0.07613735 0.24008425 0.05809237 -0.029859459
000040 d1 80 6a bd b4 3d 2b 3d 13 01 61 3d 59 d9 ba bd
       -0.057251755 0.04180689 0.054932665 -0.09123487
000050 cf 1d 5b 3e 46 79 f5 bd 02 03 eb bd 68 96 15 3e
       0.2139809 -0.11986022 -0.11475183 0.14608157
000060 a7 d7 ce 3d cd a2 b1 be 41 c0 fa bc 11 cd e4 bc
       0.10099726 -0.3469452 -0.030609252 -0.027929815
000070 d0 62 19 3c 93 a9 16 bd 74 6a e4 3d 47 39 36 be
       0.009361938 -0.036782812 0.11153117 -0.17795287
000080 2e e7 2e 3d 25 02 0b 3d 88 39 3e be 79 bf 9c bd
       0.04270094 0.033937592 -0.18576634 -0.07653708
000090 1b 81 1f be 2f 19 c7 bb 7a 73 1b be 47 d7 6d be
       -0.15576594 -0.006076 -0.1518077 -0.23226653
0000a0 73 94 01 3d 37 13 3d be 4d 89 6f bd 8b c8 d1 3d
       0.031635713 -0.18464361 -0.05848055 0.10243329
0000b0 17 de e3 3d d8 7b f9 3d b8 b5 29 bd c6 59 9f bc
       0.11126345 0.121818244 -0.041433066 -0.019451987
0000c0 d4 0f 0b be 65 ce 54 3e 73 be 5d be 6f f6 03 3e
       -0.13580257 0.20781858 -0.21654682 0.12886976
0000d0 c4 6b 08 3e 91 f0 67 3e 17 76 95 3d c0 01 8f bd
       0.1332236 0.22650363 0.072979145 -0.06982756
0000e0 82 3c 8f 3d 97 d8 2b bd eb 32 3d 3d 4d 18 1b bc
       0.06993963 -0.041954603 0.046191137 -0.009466243
0000f0 1e 58 45 be 4e eb c1 bd 89 74 be 3d c6 a1 9c 3d
       -0.19271895 -0.09468709 0.09299571 0.07648043
000100 d8 d3 ed 3d 06 20 6a bd 97 ee f7 bd ac a4 51 3d
       0.116126716 -0.057159446 -0.12106054 0.051182434
000110 5a 4c 01 3b ea 02 68 3d 1f f5 b4 3d ea b5 3d 3d
       0.0019729347 0.056643404 0.08835816 0.046316065
000120 95 d8 d7 be 71 88 a3 3d e8 b5 54 3b 86 0e 93 bd
       -0.42157426 0.079850085 0.0032457057 -0.071805045
000130 49 73 02 3e 31 44 c4 bd 64 5a d6 3b 34 b9 7b bd
       0.1273929 -0.09583319 0.006541537 -0.06145592
000140 0b f7 4e 3d 78 9c ed 3d fe 71 8d bd 54 00 96 be
       0.050528567 0.1160211 -0.06906508 -0.29297125
000150 82 74 9c bd 33 45 34 3d f4 60 09 3e 51 88 a7 3d
       -0.076394096 0.044011306 0.13415891 0.08180297
000160 dd 3b 92 be 3c 2b 5a be 4e 71 74 3e 63 3a 15 be
       -0.28561297 -0.21305555 0.23871347 -0.14573054
000170 de e7 92 3d 3c cd 68 be 29 cf 81 3d ee 00 2a be
       0.071731314 -0.2273454 0.06338341 -0.16601917
000180 4b 41 88 bd 4b 20 46 3e 6e 55 5f 3b 21 31 00 3e
       -0.06653079 0.19348256 0.003407802 0.12518741
000190 5c 38 97 3e 4b 5d 3a 3d af ea 82 3e 55 58 46 bd
       0.29535186 0.045499127 0.25569674 -0.048424084
0001a0 0a b0 9b bd 37 d4 72 be 36 b7 3d be 31 90 f7 bd
       -0.07601936 -0.23713766 -0.1852692 -0.12088049
0001b0 98 a0 90 3e a7 37 40 be d1 30 63 bd 6c 21 79 bd
       0.28247523 -0.1877123 -0.055466477 -0.06082289
0001c0 41 d2 72 3d ba db 0c bd c9 29 27 3d 33 63 9b bd
       0.059282545 -0.034389235 0.040811334 -0.0758728
0001d0 58 4f 90 3e fe 49 a5 3a a0 7c 80 3d 8c 07 17 be
       0.28185534 0.0012610552 0.0627377 -0.14748973
0001e0 af 40 d1 bd 80 55 42 bd 67 75 f0 3d ff 01 47 3e
       -0.102174155 -0.04744482 0.11741143 0.19434355
0001f0 45 fd 13 3d b6 10 2c 3e 65 04 00 3e ff b4 53 bd
       0.03613021 0.1680325 0.12501676 -0.051686283
000200 0d 0a 24 3e 4b dc d7 ba 4c 90 0c be 17 1d 42 3d
       0.16019459 -0.0016468851 -0.1372692 0.047391023
000210 f0 d7 39 3c 03 e6 5a 3e f9 9b b5 3d e8 c4 58 be
       0.011342987 0.21376805 0.0886764 -0.21168864
000220 0c d2 ba 3d c8 37 b1 bb ae 58 5d bd 80 58 a7 bd
       0.091220945 -0.005408261 -0.05403965 -0.08171177
000230 66 11 1c be a3 c1 c9 bd 83 7f 72 bd 67 29 15 be
       -0.15241012 -0.098513864 -0.059203636 -0.14566575
000240 df 40 18 bd 16 f1 8b bb 45 c5 66 3e 28 8c 1e 3e
       -0.03717124 -0.004270683 0.2253619 0.15483153
000250 9e 5b 6a 3d 77 cc ed bd 6d 68 f0 bb a3 7f 15 be
       0.05721628 -0.11611264 -0.0073366673 -0.14599471
000260 c3 90 18 bc 60 22 6a 3d f9 fe d1 bc 28 1d 48 be
       -0.009311858 0.05716169 -0.025634276 -0.19542372
000270 0c 3a a6 bd bb d3 1c 3e 79 ad e2 3d cc 04 82 bd
       -0.0811654 0.15315144 0.110682435 -0.06348571
000280 fc ea a4 3d 94 5b 9b 3e 36 2d 74 3d 37 ba c4 3d
       0.08052632 0.30343306 0.05961343 0.0960583
000290 ef d2 01 bc bb bf 05 3e 94 c8 dc bd 16 d0 cc 3d
       -0.007923826 0.1306142 -0.10780445 0.10000627
0002a0 81 12 e2 bd ac d6 14 3d 7b 7b c4 bd 49 11 09 bb
       -0.110386856 0.03633754 -0.095938645 -0.0020914844
0002b0 a7 c7 4e 3e d8 5f 4d 3e 62 f1 5f be 11 56 7e be
       0.20193349 0.20056093 -0.21869424 -0.24837519
0002c0 cf 8b c5 3c a0 b1 de bd 93 36 0d be c7 61 93 bd
       0.024114517 -0.10873723 -0.1379035 -0.07196384
0002d0 4d 30 e1 3d 1d a1 ec 3c 31 ca cd ba ce 14 02 be
       0.10995541 0.028885419 -0.0015700517 -0.12703249
0002e0 8f 7b 0d be d2 87 0d be 9d 8c 0d be 03 c1 37 bd
       -0.13816665 -0.13821343 -0.13823171 -0.044861805
0002f0 ca d9 a4 3d 08 f5 e2 3d ed 5b 96 bd b5 3c 2c 3e
       0.080493525 0.11081892 -0.07341752 0.16820033
000300 62 e7 0c be 65 59 10 3d 1d 69 11 3e f0 2e 32 be
       -0.1376014 0.035241503 0.14200254 -0.17400718
000310 85 75 fa 3d 48 af 3f 3c 69 ff 02 be 5d 79 84 3c
       0.12229446 0.011699505 -0.12792744 0.016171152
000320 f2 1a d1 bd f8 32 20 3e d0 58 0c be e2 23 97 3e
       -0.102102175 0.15644443 -0.13705754 0.29519564
000330 1e 76 38 be 53 67 bc 3d 7a bd 8c 3e de e3 95 bd
       -0.18013808 0.09199395 0.2748831 -0.07318853
000340 6b 73 5a 3e d8 76 8c 3e 33 49 46 be 85 e6 02 bd
       0.21333091 0.2743442 -0.19363861 -0.03195812
000350 79 66 9d bd 82 7d 11 be f2 78 26 3d ba d7 16 3d
       -0.07685561 -0.14208034 0.040642686 0.036826827
000360 d5 74 bd bd 56 80 55 3e d8 db d2 3d e3 4f b1 3d
       -0.092507996 0.20849738 0.10295838 0.08657815
000370 40 b3 3e 3e 75 c3 05 bb 52 94 97 bd a2 c6 58 bc
       0.18623066 -0.002041069 -0.07401337 -0.0132309515
000380 b0 b2 96 bd 2c 0f 24 be 82 09 ef bd 68 ae 69 bd
       -0.07358301 -0.16021413 -0.11671735 -0.057051092
000390 4a 4b 87 3d 29 d1 22 be e5 84 61 bc 18 86 15 3e
       0.06606157 -0.15900101 -0.013764595 0.14601934
0003a0 30 30 59 3d 6b 17 34 3d f5 0f 7d bd 93 c4 0d bd
       0.05302447 0.043967646 -0.061782796 -0.034611296
0003b0 73 de f3 bd ec eb 7e bd 20 82 87 bd 12 40 82 be
       -0.11907663 -0.06223671 -0.06616616 -0.25439507
0003c0 75 2b d8 3c b1 3b 9f 3e 12 48 08 bd 05 07 f2 bd
       0.02638791 0.31100228 -0.033271857 -0.11817745
0003d0 83 4a f4 bc 0c 97 9a bc 6b 95 ec 3d 15 c6 2b 3c
       -0.029820686 -0.018870853 0.11551937 0.010484238
0003e0 64 a9 17 3d 4d ca 2d bd 2a cb ad 3d 55 82 f3 3d
       0.037026778 -0.042429257 0.08486016 0.11890093
0003f0 83 62 83 3d c3 97 b4 3c fc a8 85 3d dc 60 76 3e
       0.06415274 0.022045022 0.06526372 0.24060386

i2o.bias f4 [2]
000000 25 bc 95 3c 15 84 90 3c
       0.01827819 0.017641107
