on_line/bert_server/model/BERT_net.pth (torch_old, 492437 bytes, 4 tensors)

fc1.weight f4 [8, 15360]
0	0xba6df87a	-0.00090778584
1	0xbbd4a35e	-0.0064892014
2	0xbc0315b8	-0.008000784
3	0xbba6c6ba	-0.005089608
4	0xbb8fb5b9	-0.0043856767
5	0x3aa10661	0.0012285226
6	0x3c468573	0.012116778
7	0xbcf21ca2	-0.029554669
8	0xbc54b138	-0.012981705
9	0x3cc5d9cf	0.02415171
10	0x3b664ca2	0.0035140892
11	0xbbad4799	-0.005288076
12	0xbc4a71f0	-0.012356266
13	0xbb98fbe9	-0.004668702
14	0xbb093299	-0.00209347
15	0x3c7eeb3e	0.015559016
16	0x3bbeaab1	0.005818688
17	0xbc6d6689	-0.014489778
18	0x3b982a15	0.0046436884
19	0x3c7e1835	0.015508701
20	0xbb967a30	-0.0045922026
21	0x3b6294e5	0.0034573611
22	0x3ad58553	0.0016290344
23	0x3a3e08a1	0.00072492106
24	0xbcd247ed	-0.025669063
25	0xbcebc931	-0.028782459
26	0xbc3e1f23	-0.011604103
27	0x3cb7ef53	0.022452986
28	0x3bea6984	0.0071536917
29	0xbbd36178	-0.006450828
30	0xbbdf2650	-0.006809987
31	0x3c72ada9	0.014811912
32	0x3c3f9214	0.011692543
33	0xbc0f6a7d	-0.008753416
34	0x3b6cbc56	0.0036123
35	0x3bf59f86	0.0074958233
36	0x3c5dfd27	0.013549126
37	0xbbb2bdd8	-0.00545476
38	0xbc8dc7cf	-0.01730719
39	0x3cb903b5	0.022584775
40	0xbcd81b26	-0.026380133
41	0x3ca8e467	0.020616723
42	0xbb9dca4e	-0.0048153764
43	0x3c16fd68	0.00921569
44	0xbb703116	-0.0036650351
45	0xbb5e02f0	-0.0033876263
46	0xbc507845	-0.012723987
47	0x3c01ed33	0.007930088
48	0xbb076bae	-0.0020663547
49	0x3c1c7a76	0.009550681
50	0x3c5f68ef	0.013635858
51	0x3aacaa6e	0.0013173351
52	0x3c29d5b1	0.010365889
53	0x3bc1d6c2	0.0059154937
54	0x3c380e9f	0.011233955
55	0xbc4d34d9	-0.012524807
56	0x3cad3b81	0.021146538
57	0x3c5baaf9	0.013407462
58	0x3c6f5204	0.014606956
59	0xbccade8e	-0.024764325
60	0x3bd8591b	0.006602419
61	0xbc15eba4	-0.009150419
62	0x3b231804	0.002488614
63	0x3b4201c3	0.00296031
64	0xba65959d	-0.0008757951
65	0xbbff7cbd	-0.0077968524
66	0xbc9185c0	-0.017763972
67	0xb972986c	-0.000231357
68	0x3b3fbca0	0.0029256716
69	0xbc03fba6	-0.008055603
70	0x3c4534f9	0.012036555
71	0x3ae68527	0.001758729
72	0x3c0f9d72	0.008765565
73	0x3c2f0b5a	0.010683859
74	0x3bb2a153	0.0054513603
75	0xbaa8e0b7	-0.0012884353
76	0xbc56edfb	-0.013118262
77	0x3be0cba5	0.006860214
78	0xbc01996e	-0.007910116
79	0xbd1d1928	-0.03835407
80	0xbbb74b9c	-0.00559373
81	0x3c8e941f	0.017404614
82	0x3c5215a7	0.012822545
83	0x3c5eb092	0.013591902
84	0xbc1e3bc0	-0.0096578
85	0x3c25446f	0.010087117
86	0xbad55f72	-0.0016279055
87	0x3bd02160	0.006351635
88	0x3d031881	0.03200579
89	0x3bca0b67	0.00616591
90	0xbb990df4	-0.004670853
91	0xbc133204	-0.008984093
92	0x3c2a3b3c	0.010390099
93	0xbbd084ae	-0.006363473
94	0x3bf5af12	0.0074976766
95	0x3b4d7191	0.0031348208
96	0xbb44f04b	-0.0030050452
97	0xbbcab7f6	-0.0061864806
98	0x3c40bd05	0.011763816
99	0x3b1d1e48	0.0023974348
100	0x3c7a4601	0.015275479
101	0x3beeb22b	0.007284423
102	0x3bade52c	0.0053068604
103	0xbc6e2e0e	-0.0145373475
104	0xbc1e675d	-0.009668198
105	0x3b94036d	0.00451701
106	0xbb210202	-0.0024567847
107	0xbc78f8f6	-0.015196076
108	0xbc2f2b1a	-0.010691429
109	0xbc2c1b3b	-0.010504539
110	0xbc9d2575	-0.0191829
111	0x3bdca2a6	0.0067332564
112	0xbc0e41f4	-0.008682717
113	0x3c07a844	0.008279864
114	0xbbba9615	-0.0056941607
115	0x3bb86c31	0.005628132
116	0xbad770d3	-0.0016436822
117	0x3c7310a9	0.014835515
118	0x3aedbce9	0.0018137965
119	0xbc7bb5ec	-0.015363198
120	0x3aa3277a	0.0012447678
121	0x3c0c5f85	0.0085676955
122	0xbcca03ad	-0.024659956
123	0xbbf99baa	-0.0076174336
124	0x3d0fe206	0.035127662
125	0x3bc5d847	0.006037745
126	0xbc848f07	-0.016181482
127	0x3b9d37af	0.004797898
128	0x3bb6f73c	0.005583672
129	0xbbbc47c5	-0.0057458603
130	0x3c02d957	0.007986388
131	0x3c47dcea	0.012198666
132	0xbc33a47d	-0.01096451
133	0xbc86a650	-0.016436726
134	0x3c8dfaa5	0.01733143
135	0x3be6cd6d	0.0070435316
136	0xbb747075	-0.0037298475
137	0x3c6f6a11	0.014612691
138	0x3c16ac5f	0.00919637
139	0x3bff6bfd	0.0077948556
140	0x3abf300b	0.0014586461
141	0xbc059a62	-0.0081544835
142	0x3cad2d0d	0.021139646
143	0x3bbcc470	0.005760722
144	0x3cbce22a	0.023057062
145	0xba8c9849	-0.0010726537
146	0xbc194715	-0.009355326
147	0x3ba2244c	0.0049481746
148	0x3c185209	0.009296902
149	0x3c372afc	0.011179682
150	0x3be5ee49	0.007016931
151	0xbc9b45a6	-0.01895411
152	0x3c2bfc81	0.010497213
153	0xbcacbfe8	-0.021087602
154	0xbc3326e2	-0.010934563
155	0x3b81b53d	0.003958373
156	0x3d14f404	0.036365524
157	0xbb8e1914	-0.0043364856
158	0x3c839945	0.016064296
159	0xbb8b294a	-0.0042468654
160	0xbbca4329	-0.006172557
161	0x3ba9eb54	0.005185524
162	0xbc2eba48	-0.01066453
163	0xbcb18162	-0.02166814
164	0x3c683881	0.014173628
165	0xbcb53d70	-0.022124022
166	0x3bb456ca	0.00550351
167	0x3bcab102	0.0061856518
168	0xbb065a26	-0.002050051
169	0xbc89518e	-0.016762521
170	0xbb0919ac	-0.0020919843
171	0xbad02483	-0.0015880022
172	0xbc7d8b75	-0.015475144
173	0x3bb53209	0.0055296463
174	0x3c879420	0.016550124
175	0xbca2fe6f	-0.019896714
176	0x3aa19324	0.0012327177
177	0x3b271202	0.0025492911
178	0xbc32b58f	-0.010907545
179	0x3c405608	0.011739261
180	0xbbe1fff9	-0.0068969694
181	0xbc89a0de	-0.01680034
182	0x3b4f7395	0.0031654586
183	0x3bdf6e34	0.006818557
184	0xbc12301c	-0.008922603
185	0x3a0c8ca4	0.0005361533
186	0xbc7adecc	-0.015311908
187	0x3c51a33e	0.012795268
188	0x3b1a0f7a	0.002350776
189	0xb9ca86d5	-0.000386289
190	0x3c3e52fe	0.011616467
191	0xb9fe1512	-0.00048462354
192	0xbc49b1f5	-0.012310495
193	0x3c570e98	0.013126038
194	0xb9749aa7	-0.00023327266
195	0x3c26266c	0.010140996
196	0xbcd29e47	-0.025710238
197	0x3c66380b	0.014051448
198	0x3c3987cb	0.0113238795
199	0xbb09ff49	-0.0021056703
200	0xba9cf617	-0.0011975196
201	0xbbe6e01c	-0.007045759
202	0xbc1b1c47	-0.009467191
203	0xbbef3847	-0.00730041
204	0x3b3c1cd3	0.0028703704
205	0xbb6aa4eb	-0.0035803865
206	0xbd0af178	-0.03392169
207	0xbc31ad97	-0.01084461
208	0x3cbf93ca	0.023385901
209	0x3bbfac8d	0.005849427
210	0xbbb4e4ef	-0.005520455
211	0x3b953a46	0.004554066
212	0xba4164c2	-0.000737738
213	0xbb360586	-0.0027774288
214	0x3b85c630	0.0040824637
215	0x3c64bfad	0.013961715
216	0xbc80e62d	-0.015734756
217	0xba2364e3	-0.000623299
218	0xbc0df87d	-0.008665201
219	0x3b838b56	0.004014413
220	0xbc95e361	-0.0182969
221	0x3be2515f	0.006906673
222	0x3bb6438c	0.0055622514
223	0xbaae8263	-0.0013314005
224	0x3a8fa0db	0.0010957973
225	0xbbc9d3df	-0.00615929
226	0xbbaeb2e5	-0.0053313845
227	0x3c9ab814	0.018886603
228	0xbbae2098	-0.005313944
229	0x3bce7430	0.0063004717
230	0x3b4b5097	0.0031023377
231	0x3c36cd97	0.011157415
232	0x3c5595f2	0.013036238
233	0xbc74c12c	-0.014938634
234	0xbcb7ef8d	-0.022453094
235	0x3c23a821	0.0099888155
236	0xbcfb9b11	-0.03071359
237	0xbb0b99c6	-0.0021301373
238	0x3c0eca05	0.008715157
239	0xbb54407e	-0.0032387073
240	0xbc02ed92	-0.0079912115
241	0xbb01e473	-0.0019820004
242	0xbc8175d9	-0.015803264
243	0x3b9a2cc4	0.0047050435
244	0xbc1f15e0	-0.009709805
245	0xbc2fc21e	-0.0107274335
246	0x3bd17f8c	0.0063933786
247	0x3c63c617	0.013902209
248	0x3ab95800	0.0014140606
249	0xbac71912	-0.0015189967
250	0xbc2697c9	-0.010168024
251	0x3b9e7e44	0.0048368294
252	0xba330e24	-0.0006830415
253	0x3b23d184	0.0024996707
254	0x3cb0d29d	0.021584803
255	0xbb777de3	-0.0037764243

fc1.bias f4 [8]
0	0x3bf9b586	0.0076205162
1	0x3bdd0206	0.006744626
2	0xbb24cee4	-0.002514773
3	0x3b8e7a57	0.00434808
4	0x3b58f688	0.0033105928
5	0xbb1e8d43	-0.0024193085
6	0x3a49b95e	0.00076951634
7	0x3bfa64b4	0.0076413993

fc2.weight f4 [2, 8]
0	0xbc3e31ed	-0.011608583
1	0x3f3c9327	0.73662037
2	0xbd3b8065	-0.045776743
3	0x3f2b6c3b	0.6696202
4	0xbebdcc2f	-0.37069842
5	0x3da7ef9a	0.08199997
6	0x3f37bb3f	0.7177009
7	0x3e0b4f63	0.13604502
8	0x3f81131a	1.0083954
9	0xbe487b83	-0.19578366
10	0xbe40f390	-0.18842912
11	0xbdb12083	-0.08648779
12	0xbd9c43f7	-0.07630151
13	0xbea41d66	-0.3205368
14	0xbe427c2a	-0.18992677
15	0x3eb2a9ab	0.3489507

fc2.bias f4 [2]
0	0xb8a6152d	-7.919441e-05
1	0xbd9799ff	-0.07402419
